…
    "model1 = Model1(input_tensor=input_tensor)\n",
    "model2 = Model2(input_tensor=input_tensor)\n",
    "model3 = Model3(input_tensor=input_tensor)"
   ]
  },
  {
   "cell_type": "code",
   "execution_count": 4,
   "metadata": {},
   "outputs": [
    {
     "name": "stdout",
     "output_type": "stream",
     "text": [
      "Model: \"model_1\"\n",
      "_________________________________________________________________\n",
      "Layer (type)                 Output Shape              Param #   \n",
      "=================================================================\n",
      "input_1 (InputLayer)         (None, 28, 28, 1)         0         \n",
      "_________________________________________________________________\n",
      "block1_conv1 (Conv2D)        (None, 28, 28, 4)         104       \n",
      "_________________________________________________________________\n",
      "block1_pool1 (MaxPooling2D)  (None, 14, 14, 4)         0         \n",
      "_________________________________________________________________\n",
      "block2_conv1 (Conv2D)        (None, 14, 14, 12)        1212      \n",
      "_________________________________________________________________\n",
      "block2_pool1 (MaxPooling2D)  (None, 7, 7, 12)          0         \n",
      "_________________________________________________________________\n",
      "flatten (Flatten)            (None, 588)               0         \n",
      "_________________________________________________________________\n",
      "before_softmax (Dense)       (None, 10)                5890      \n",
      "_________________________________________________________________\n",
      "predictions (Activation)     (None, 10)                0         \n",
      "=================================================================\n",
      "Total params: 7,206\n",
      "Trainable params: 7,206\n",
      "Non-trainable params: 0\n",
      "_________________________________________________________________\n"
     ]
    }
   ],
   "source": [
    "model1.summary()"
   ]
  },
  {
   "cell_type": "code",
   "execution_count": 5,
   "metadata": {},
   "outputs": [
    {
     "name": "stdout",
     "output_type": "stream",
     "text": [
      "Model: \"model_2\"\n",
      "_________________________________________________________________\n",
      "Layer (type)                 Output Shape              Param #   \n",
      "=================================================================\n",
      "input_1 (InputLayer)         (None, 28, 28, 1)         0         \n",
      "_________________________________________________________________\n",
      "block1_conv1 (Conv2D)        (None, 28, 28, 6)         156       \n",
      "_________________________________________________________________\n",
      "block1_pool1 (MaxPooling2D)  (None, 14, 14, 6)         0         \n",
      "_________________________________________________________________\n",
      "block2_conv1 (Conv2D)        (None, 14, 14, 16)        2416      \n",
      "_________________________________________________________________\n",
      "block2_pool1 (MaxPooling2D)  (None, 7, 7, 16)          0         \n",
      "_________________________________________________________________\n",
      "flatten (Flatten)            (None, 784)               0         \n",
      "_________________________________________________________________\n",
      "fc1 (Dense)                  (None, 84)                65940     \n",
      "_________________________________________________________________\n",
      "before_softmax (Dense)       (None, 10)                850       \n",
      "_________________________________________________________________\n",
      "predictions (Activation)     (None, 10)                0         \n",
      "=================================================================\n",
      "Total params: 69,362\n",
      "Trainable params: 69,362\n",
      "Non-trainable params: 0\n",
      "_________________________________________________________________\n"
     ]
    }
   ],
   "source": [
    "model2.summary()"
   ]
  },
  {
   "cell_type": "code",
   "execution_count": 6,
   "metadata": {},
   "outputs": [
    {
     "name": "stdout",
     "output_type": "stream",
     "text": [
      "Model: \"model_3\"\n",
      "_________________________________________________________________\n",
      "Layer (type)                 Output Shape              Param #   \n",
      "=================================================================\n",
      "input_1 (InputLayer)         (None, 28, 28, 1)         0         \n",
      "_________________________________________________________________\n",
      "block1_conv1 (Conv2D)        (None, 28, 28, 6)         156       \n",
      "_________________________________________________________________\n",
      "block1_pool1 (MaxPooling2D)  (None, 14, 14, 6)         0         \n",
      "_________________________________________________________________\n",
      "block2_conv1 (Conv2D)        (None, 14, 14, 16)        2416      \n",
      "_________________________________________________________________\n",
      "block2_pool1 (MaxPooling2D)  (None, 7, 7, 16)          0         \n",
      "_________________________________________________________________\n",
      "flatten (Flatten)            (None, 784)               0         \n",
      "_________________________________________________________________\n",
      "fc1 (Dense)                  (None, 120)               94200     \n",
      "_________________________________________________________________\n",
      "fc2 (Dense)                  (None, 84)                10164     \n",
      "_________________________________________________________________\n",
      "before_softmax (Dense)       (None, 10)                850       \n",
      "_________________________________________________________________\n",
      "predictions (Activation)     (None, 10)                0         \n",
      "=================================================================\n",
      "Total params: 107,786\n",
      "Trainable params: 107,786\n",
      "Non-trainable params: 0\n",
      "_________________________________________________________________\n"
     ]
    }
   ],
   "source": [
    "model3.summary()"
   ]
  },
  {
   "cell_type": "markdown",
   "metadata": {},
   "source": [
…
